Work/NN/model_best.pt (torch, 496102 bytes, 5 tensors)

weight f4 [10, 12288]
0.008461625 0.0061729816 0.0026943865 0.0035459425 0.0071860887 -0.0017983641 -0.00778765 0.007532903
-0.0028853912 -0.0018801756 -0.004397608 0.0081366915 0.0009255651 -0.008539348 0.001926896 -0.0039547863
-0.008600826 -0.0057145734 0.004253104 0.00091296795 0.00064041506 -0.006801088 0.005001972 0.005660818
0.008128588 -0.0016093692 0.005783466 -0.00051376305 -0.00095585483 0.0054322286 -0.002022491 -0.004566629
0.00037623226 0.0074947206 -0.0056385924 0.0003274062 0.0037355453 -0.005805369 0.0034935991 -0.007305274
0.0033587331 -0.0037202484 -0.0034223017 0.0006723974 -0.0015166736 0.0043336777 -0.0011222627 0.0051013175
-0.00560809 0.004516152 -0.0043413723 -0.008511819 -0.008347577 -0.0009963338 -0.002640527 0.005765976
-0.0012307473 -0.007921022 0.0020271474 0.004341955 0.00021194399 0.008068588 -0.0018768108 -0.0053704865
0.0037917332 -0.008041906 0.0025863529 0.00041640236 0.0009802347 -0.0030777557 0.007831439 -0.008668443
0.0073060417 0.0050318716 0.004236896 -0.008376429 -0.008924572 0.0024216976 0.0013905406 -0.007406081
-0.0066645737 0.0028404403 -0.008476969 0.0037428543 0.0053009097 -0.0015867538 0.0076729404 0.0032327054
-0.008255443 0.008767737 -0.006957462 0.007959447 0.001973231 0.0028967124 -0.0081463475 0.0013099365
-0.0089269765 0.0017607361 0.0062285117 0.006843542 -0.0005668622 -0.0057772924 -9.735927e-05 0.0007955293
0.0010611943 -0.007817887 0.0033416043 -0.0025701325 -0.0007782443 -0.0074358075 -0.0055629816 -0.0022348429
-0.0051716953 0.008215482 0.008009543 -0.005862591 -0.00814164 -0.005596355 -0.0056425408 0.008307744
0.0038042497 -0.0029647409 -0.00793346 0.002734553 0.0066756206 -0.004293798 0.0027576245 0.008584058
-0.0017932581 0.004511498 0.0044110287 -0.0073188823 -0.0057144696 0.0062403744 -0.0023737866 -0.0057108384
-0.00017803707 -0.002151579 -0.001622171 -0.0040765186 0.004766866 0.0004560216 0.0012382797 0.0024737306
-0.0070635937 -0.007988352 0.0013701139 -0.0049558743 -0.0029552248 -0.004607549 -0.006658288 -0.0021247622
0.0073194285 -0.005210968 -0.0011863755 0.0077214697 0.0074372482 -0.008291569 -0.008092256 -0.003117181
0.0045571467 -0.007805126 0.0026378194 -0.00831226 -0.008275537 0.0011969798 -0.004855306 -0.0083422875
-0.0011750968 -0.004227589 -0.0035132067 0.0064322413 -0.007993513 0.0049356907 -0.0069096093 0.0061864075
-0.008976168 0.008846674 -0.0041710585 0.0016419743 -0.0009959198 0.0075108535 -0.0043591573 0.0053312187
0.006984733 -0.008932768 -0.002509229 0.0035338458 -0.0021408843 -0.0010783778 0.0049562943 0.003768865
-0.007247216 0.0056258175 0.008901382 -0.005510103 -0.0042694514 0.005098686 -0.00032695892 0.005811524
0.003763507 0.0053005074 -0.008258729 0.0029730664 0.007478832 0.007960539 -0.0076906807 -0.0031280434
-0.0025535657 -0.008296472 0.0019589863 0.0038618152 0.003309511 0.008968714 0.0005402954 -0.0071111964
0.0054028183 0.003093725 -0.0057962616 -0.006370907 -0.0070767747 -0.004911379 0.0031384986 -0.002237607
0.0031741972 -0.0016038226 0.004955089 -0.0022841198 0.00090264314 -0.004457317 -0.0042675138 -0.0059992718
-0.0020106153 -0.007141396 0.008389796 -0.0068602767 -0.00055270473 0.0010023229 0.0045452137 0.008504264
-0.006546199 -0.0043057003 -0.0026536062 -0.0011909939 0.0019195781 -0.0045511434 -0.005825297 0.0073321145
-0.0055107614 0.007133178 0.008709523 0.005541309 0.007844132 0.0071601314 -0.006060237 -0.00013783918
00000000: a1a2 0a3c b946 ca3b 4e94 303b 0b63 683b
00000010: 4879 eb3b 16b7 ebba 8b2f ffbb 92d6 f63b
00000020: d518 3dbb 3970 f6ba cf19 90bb c24f 053c
00000030: 9fa1 723a 9fe8 0bbc e78f fc3a 2797 81bb
00000040: 7bea 0cbc 5141 bbbb 9f5d 8b3b 3e54 6f3a
00000050: 87e1 273a a9db debb 95e7 a33b 627e b93b
00000060: c52d 053c 78f1 d2ba 3b83 bd3b 0eae 06ba
00000070: 5592 7aba d600 b23b c58b 04bb a9a3 95bb
00000080: 0a41 c539 4696 f53b f1c3 b8bb b7a7 ab39
00000090: 0dd0 743b f73a bebb def4 643b 1461 efbb
000000a0: 311e 5c3b 69cf 73bb b248 60bb d343 303a
000000b0: 1fcb c6ba 8601 8e3b e318 93ba f428 a73b
000000c0: 12c4 b7bb 3bfc 933b 1242 8ebb 2875 0bbc
000000d0: 47c4 08bc 6a97 82ba b10c 2dbb 83f0 bc3b
000000e0: 0751 a1ba 2dc7 01bc e4d9 043b f546 8e3b
000000f0: 483d 5e39 1c32 043c 52ff f5ba e8fa afbb
00000100: ba7e 783b 33c2 03bc cd7f 293b 9450 da39
00000110: 387b 803a 2cb4 49bb 704f 003c 1606 0ebc
00000120: 8567 ef3b 66e2 a43b a9d5 8a3b 4a3d 09bc
00000130: 5e38 12bc 58b5 1e3b cd42 b63a b6ae f2bb
00000140: 7f62 dabb ae26 3a3b fce2 0abc ad4a 753b
00000150: 41b3 ad3b 9ffa cfba 4a6d fb3b ccdb 533b
00000160: d641 07bc 8ea6 0f3c 6cfb e3bb 5768 023c
00000170: 5351 013b c5d6 3d3b 4278 05bc 2db2 ab3a
00000180: 7442 12bc 80c8 e63a 8b18 cc3b cb3f e03b
00000190: 7a99 14ba 714f bdbb 5c2d ccb8 118b 503a
000001a0: c617 8b3a 9816 00bc d1fe 5a3b ab6f 28bb
000001b0: 1703 4cba 13a8 f3bb ac49 b6bb 7176 12bb
000001c0: 5377 a9bb 3b9a 063c 753a 033c fa1a c0bb
000001d0: 8364 05bc a161 b7bb 10e5 b8bb 341d 083c
000001e0: b850 793b 194c 42bb 58fb 01bc 3036 333b
000001f0: 2abf da3b fdb2 8cbb 43b9 343b 26a4 0c3c
00000200: c20b ebba 30d5 933b 648a 903b 3cd3 efbb
00000210: 7240 bbbb 0e7c cc3b 8891 1bbb fc21 bbbb
00000220: 76af 3ab9 8101 0dbb 079f d4ba 5194 85bb
00000230: 5f33 9c3b 2f16 ef39 c64d a23a 501e 223b
00000240: b875 e7bb 94e1 02bc 6595 b33a e364 a2bb
00000250: 72ac 41bb ecfa 96bb c52d dabb 983f 0bbb
00000260: d1d7 ef3b c5c0 aabb 2880 9bba 6204 fd3b
00000270: 29b4 f33b 5cd9 07bc 6295 04bc 9e49 4cbb
00000280: 1e54 953b 24c2 ffbb 44df 2c3b 2530 08bc
00000290: 1e96 07bc fae3 9c3a 4219 9fbb 17ae 08bc
000002a0: b505 9aba 9687 8abb d43d 66bb 8dc5 d23b
000002b0: 39f7 02bc 93bb a13b 016a e2bb 59b7 ca3b
000002c0: c710 13bc a4f1 103c 60ad 88bb 8437 d73a
000002d0: 8689 82ba 9b1d f63b 43d7 8ebb 81b1 ae3b
000002e0: 30e0 e43b bf5a 12bc e071 24bb 1898 673b
000002f0: 144e 0cbb 5b58 8dba 6968 a23b 10ff 763b
00000300: 0e7a edbb c758 b83b 1ad7 113c 188e b4bb
00000310: c1e6 8bbb e112 a73b af6b abb9 996e be3b
00000320: 2ba5 763b e1af ad3b 9f4f 07bc c7d7 423b
00000330: fd10 f53b ec6c 023c 1b02 fcbb dcff 4cbb
00000340: b959 27bb eded 07bc 5662 003b 8216 7d3b
00000350: 62e4 583b 83f1 123c 9ca2 0d3a 0a05 e9bb
00000360: 200a b13b 18c0 4a3b 91ee bdbb 0bc3 d0bb
00000370: 4ae4 e7bb a2ef a0bb 45af 4d3b d1a4 12bb
00000380: 3106 503b 5b37 d2ba 4d5e a23b 2cb1 15bb
00000390: 5b9f 6c3a af0e 92bb 80d6 8bbb 8a95 c4bb
000003a0: 87c4 03bb 5f02 eabb 5b75 093c 2ccc e0bb
000003b0: 63e3 10ba 6060 833a 04f0 943b 7855 0b3c
000003c0: 7f81 d6bb d516 8dbb 20e8 2dbb 201b 9cba
000003d0: 5a9a fb3a c221 95bb 22e2 bebb 3c42 f03b
000003e0: 9e93 b4bb 6fbd e93b 63b2 0e3c de93 b53b
000003f0: ad84 003c 899f ea3b f494 c6bb ec88 10b9

bias f4 [10]
0.0074927947 -0.008396607 -0.051679067 -0.014485285 0.02308605 0.0021444124 -0.02470987 -0.0031337256
0.1117224 -0.01677135
00000000: 1e86 f53b ec91 09bc 6ead 53bd b053 6dbc
00000010: f51e bd3c 4589 0c3b 5a6c cabc 315f 4dbb
00000020: b7ce e43d 1264 89bc

weight f4 [12, 10]
0.009254599 -0.09592715 -0.09780301 0.043284543 0.054450125 -0.051057503 0.19347262 -0.08540238
-0.25152674 0.19568169 0.066340186 0.11513403 -0.24810737 -0.14660248 0.0010664989 -0.30887222
-0.15320924 -0.21746509 -0.0011419193 -0.17340714 0.23051222 0.27689767 0.0024135893 -0.1193579
0.21503411 -0.2326656 0.05994662 0.014742089 -0.3093242 -0.087761715 -0.25247374 -0.051017378
0.36017108 -0.16374442 0.017896108 -0.02882021 0.067366846 -0.2879605 -0.24632281 0.10547144
0.28866854 0.32788366 0.29310045 0.1103309 -0.18227266 -0.22673246 0.1197786 0.1001586
-0.5389912 0.4130922 -0.074535206 -0.2030811 -0.41678727 0.22451274 -0.17322758 0.17279689
0.07573586 -0.11181724 0.5160223 -0.27956185 -0.16747364 -0.024290178 0.13723737 0.23822588
-0.46834767 0.27871156 -0.12328819 -0.05999757 -0.6280992 0.07651595 -0.18967882 -0.06027534
0.29652852 0.12244636 0.15345433 -0.2987112 0.24011877 0.31297252 0.009196991 0.17980942
-0.30704853 -0.11624838 -0.48161453 0.03405552 0.27659255 -0.034855407 -0.26850638 -0.2763719
0.09739022 -0.26171258 -0.11002751 -0.1238562 -0.5161526 -0.33267254 0.40407124 -0.2823963
-0.2340485 0.27740347 0.39389953 -0.48387784 -0.21553755 0.1030456 -0.17922321 -0.08556801
0.37413794 -0.24544105 -0.38413864 -0.11797826 0.3718508 0.023031779 0.06345706 0.22201931
0.6265069 0.25612587 -0.28011888 -0.27333096 0.40858096 -0.16803694 -0.51451355 -0.022466043
00000000: 9aa0 173c 7475 c4bd f24c c8bd 224b 313d
00000010: 1807 5f3d ac21 51bd b01d 463e 71e7 aebd
00000020: 1dc8 80be c860 483e 5ddd 873d 64cb eb3d
00000030: dc0f 7ebe f61e 16be c4c9 8b3a 8024 9ebe
00000040: e2e2 1cbe 2baf 5ebe 74ac 95ba a491 31be
00000050: 650b 6c3e 88c5 8d3e 4f2d 1e3b ea71 f4bd
00000060: e731 5c3e e43f 6ebe 968a 753d ce88 713c
00000070: be5f 9ebe 6abc b3bd 3d44 81be 99f7 50bd
00000080: 5868 b83e 9eac 27be dc9a 923c 5c18 ecbc
00000090: a1f7 893d 8f6f 93be 0c3c 7cbe 6901 d83d
000000a0: 5dcc 933e 5ee0 a73e 4311 963e 2bf5 e13d
000000b0: afa5 3abe 8e2c 68be 7c4e f53d f41f cd3d
000000c0: 54fb 09bf d280 d33e eaa5 98bd 7ef4 4fbe
000000d0: 2465 d5be abe6 653e 9262 31be abf1 303e
000000e0: 671b 9b3d 7000 e5bd 0a1a 043f bb22 8fbe
000000f0: 367e 2bbe 32fc c6bc f487 0c3e 7cf1 733e
00000100: 44cb efbe 48b3 8e3e 857e fcbd 03c0 75bd
00000110: 1ccb 20bf 65b4 9c3d 2a3b 42be 46e3 76bd
00000120: 96d2 973e 28c5 fa3d 2223 1d3e adf0 98be
00000130: b2e1 753e ef3d a03e faae 163c f61f 383e
00000140: 7735 9dbe a113 eebd 2e96 f6be cd7d 0b3d
00000150: 8a9d 8d3e 8bc4 0ebd ab79 89be 9e80 8dbe
00000160: 8674 c73d 31ff 85be 1a56 e1bd 52a8 fdbd
00000170: 9422 04bf 0e54 aabe 6de2 ce3e 3f96 90be
00000180: 69aa 6fbe d407 8e3e 33ad c93e d6be f7be
00000190: e0b5 5cbe 9209 d33d 4a86 37be 483e afbd
000001a0: 028f bf3e e654 7bbe d2ad c4be 969e f1bd
000001b0: 3a63 be3e 24ad bc3c c6f5 813d 0859 633e
000001c0: c262 203f ee22 833e be6b 8fbe 09f2 8bbe
000001d0: 8631 d13e e011 2cbe 29b7 03bf b50a b8bc

bias f4 [12]
0.091036156 0.3485792 -0.17537874 2.4506913e-05 0.17090559 -0.22558576 0.060380805 -0.09127092
0.2572226 0.07281931 0.18015066 -0.19774574
00000000: 2a71 ba3d f978 b23e 7c96 33be 3294 cd37
00000010: e001 2f3e f4ff 66be dd51 773d 40ec babd
00000020: aeb2 833e 4a22 953d 6a79 383e dc7d 4abe

weight f4 [1, 12]
0.22182384 -0.28542158 0.17701477 0.4246869 0.65248764 -0.5503151 0.6741374 0.23378423
-0.59107304 -0.9215903 -0.4942413 0.942639
00000000: ca25 633e c722 92be 5c43 353e 9070 d93e
00000010: 6e09 273f 73e1 0cbf 4594 2c3f 2265 6f3e
00000020: 9050 17bf 58ed 6bbf 320d fdbe ca50 713f
